arxiv-topic/bertopic_model/topic_embeddings.safetensors (safetensors, 52312 bytes, 1 tensors)

topic_embeddings f4 [34, 384]
-0.22287576 -0.03731665 -0.08167282 -0.27205485 0.070106484 0.0145813385 -0.14279163 -0.021495622
-0.040622298 -0.0032330975 -0.018645614 0.03423664 0.0893534 -0.025586491 -0.06274366 0.02073683
0.07579913 0.14119744 -0.07669001 -0.02286412 0.01832295 -0.07221257 0.0057945517 -0.025665438
-0.0883518 -0.05251214 0.019907096 -0.12439763 0.35829085 -0.041149482 0.11544316 0.15558949
0.10534367 -0.0034289716 -0.21061482 0.041823074 -0.12772782 -0.008056373 0.003492021 0.002366957
-0.11551233 0.016232127 0.0504003 0.0070568915 -0.030761456 -0.033914343 -0.18459827 0.107476145
-0.19402614 0.053678483 -0.09356779 -0.052594084 -0.21692307 -0.1398983 -0.01174984 0.030564006
-0.03100296 0.018167766 -0.09317949 -0.111406825 0.061304685 -0.059753925 -0.12940557 0.021042004
0.26460445 0.09514647 0.0059229806 -0.06035667 0.19724509 0.15610167 -0.03018892 -0.04962316
-0.23294231 0.04123443 0.100141734 0.13598245 -0.08205693 0.049246985 0.1519932 -0.16918814
0.17419744 0.04677452 -0.0479903 0.008599419 0.1331148 -0.0763577 0.052151866 -0.022865834
0.14348488 -0.043286584 0.098701194 -0.17736253 -0.0064609805 0.07640868 0.2188114 0.14713693
0.006933793 -0.06840077 0.1343333 0.16454327 -0.18252976 -0.032958396 -0.1586959 -0.031191025
-0.00830994 -0.1325979 0.109635636 0.044179074 0.14217238 0.055757836 -0.08867006 -0.05069904
-0.108184464 -0.13953817 -0.050910346 -0.12534404 0.12306791 0.02637165 -0.04835682 -0.22498685
-0.079695895 -0.21996671 0.031346045 0.10455934 0.13510375 0.110894956 -0.20578058 0.012233903
0.02203429 0.009521111 0.111719936 -0.024297241 0.02602677 -0.007137276 0.059716053 -0.052123405
-0.012411404 -0.100105576 -0.10155164 0.06935712 -0.10350514 0.059997387 0.13773806 -0.038201887
0.096709326 0.14915809 -0.08211811 -0.007227105 0.09660851 -0.16091064 0.1210677 -0.22982213
-0.09679272 0.08329445 0.23750919 0.12001938 0.09772063 0.043393675 -0.04529372 -0.021414053
-0.11354123 0.05419578 0.01579955 0.025944978 0.15577908 -0.08549429 -0.045472648 -0.117266975
-0.04384864 0.15377332 -0.06636971 -0.139568 -0.078882575 0.03376499 0.23440953 -0.07368565
-0.29746953 -0.08220981 -0.022406198 0.096408464 0.07067471 -0.08375094 0.18870585 0.08971256
-0.050060615 0.03302933 0.15479232 0.09179585 -0.14193451 0.053103376 -0.09374991 0.004789312
0.13150345 0.06916069 -0.01600899 -0.17390902 0.25886613 -0.06429426 0.031847093 0.056458164
-0.11631463 -0.07653342 -0.092428364 -0.10240892 -0.034482572 0.1030706 0.04795288 -0.10034881
-0.17038096 0.20395556 -0.062454842 -0.11398933 -0.19782972 -0.008770718 0.036082588 -0.11836931
-0.1289116 0.051937416 -0.15542041 0.12070357 -0.1123292 0.044137985 0.0128457295 -0.08774281
-0.24390942 0.03522889 -0.18041226 0.0532792 -0.1260264 0.08992365 0.002772259 -0.061373048
0.23635727 -0.029577343 -0.04655956 -0.02875629 -0.053371307 -0.05048212 -0.14667453 -0.20537838
-0.042281438 -0.14845975 -0.21989335 0.048970934 0.09973558 0.13340798 -0.26035917 0.026316024
0.0035264322 0.089794524 -0.12338363 -0.06886915 0.14258479 0.042823315 -0.064869925 -0.08455359
00000000: 8b39 64be 58d9 18bd 1444 a7bd c64a 8bbe
00000010: fd93 8f3d 91e6 6e3c f837 12be 9617 b0bc
00000020: 9163 26bd 60e2 53bb b0be 98bc b83b 0c3d
00000030: eafe b63d c39a d1bc bf7f 80bd 49e0 a93c
00000040: 933c 9b3d 1096 103e a70f 9dbd 894d bbbc
00000050: 031a 963c 2fe4 93bd 39e0 bd3b 5340 d2bc
00000060: caf1 b4bd f816 57bd 3514 a33c 2fc4 febd
00000070: e671 b73e 5c8c 28bd 776d ec3d da52 1f3e
00000080: 6cbe d73d 99b8 60bb 69ab 57be ac4e 2b3d
00000090: 15cb 02be e1fe 03bc 64da 643b f31e 1b3b
000000a0: ba91 ecbd 3df9 843c 8c70 4e3d 7f3d e73b
000000b0: 73ff fbbc c4e9 0abd 5407 3dbe 741c dc3d
000000c0: caae 46be f8dd 5b3d 78a0 bfbd e56c 57bd
000000d0: 1521 5ebe 8041 0fbe 6782 40bc 5e61 fa3c
000000e0: ebf9 fdbc 91d4 943c e3d4 bebd 4329 e4bd
000000f0: 9f1a 7b3d 88c0 74bd e582 04be 4860 ac3c
00000100: 3c7a 873e 27dc c23d 9015 c23b 8e38 77bd
00000110: 9efa 493e 1ed9 1f3e c14e f7bc a841 4bbd
00000120: 6e88 6ebe 6fe5 283d 1c17 cd3d fc3e 0b3e
00000130: 770d a8bd 35b7 493d 1ba4 1b3e a83f 2dbe
00000140: d060 323e a496 3f3d 7a91 44bd 94e4 0c3c
00000150: 3f4f 083e 6d61 9cbd 329d 553d 2151 bbbc
00000160: b3ed 123e 464d 31bd da23 ca3d 869e 35be
00000170: a2b6 d3bb 277c 9c3d 1810 603e 10ab 163e
00000180: df34 e33b b415 8cbd ab8e 093e 087e 283e
00000190: 15e9 3abe 62ff 06bd 2e81 22be 5284 ffbc
000001a0: 6a26 08bc bec7 07be a688 e03d 1ef5 343d
000001b0: a395 113e 5462 643d a698 b5bd cca9 4fbd
000001c0: d18f ddbd 18e3 0ebe 5e87 50bd 305a 00be
000001d0: 070b fc3d 5c09 d83c cd11 46bd f462 66be
000001e0: 9a37 a3bd f43e 61be b664 003d 3523 d63d
000001f0: a358 0a3e e51c e33d 25b8 52be b570 483c
00000200: 4181 b43c 6ffe 1b3c 6ccd e43d 020b c7bc
00000210: 1836 d53c d0df e9bb d298 743d 5a7f 55bd
00000220: 3459 4bbc 2704 cdbd 4efa cfbd 1b0b 8e3d
00000230: 81fa d3bd d2bf 753d 350b 0d3e 9579 1cbd
00000240: 8a0f c63d e6bc 183e 8a2d a8bd 5ad1 ecbb
00000250: afda c53d c2c5 24be 58f2 f73d 7e56 6bbe
00000260: 433b c6bd 4896 aa3d 9c35 733e b8cc f53d
00000270: c121 c83d 91bd 313d e885 39bd 866c afbc
00000280: 4e88 e8bd 65fc 5d3d 0f6e 813c 908a d43c
00000290: 8d84 1f3e a117 afbd 8741 3abd ab29 f0bd
000002a0: a29a 33bd c176 1d3e d8ec 87bd eaea 0ebe
000002b0: 308d a1bd 284d 0a3d 0d09 703e 81e8 96bd
000002c0: ed4d 98be 9e5d a8bd 348d b7bc cd71 c53d
000002d0: e7bd 903d 9d85 abbd 1b3c 413e 38bb b73d
000002e0: 5c0c 4dbd c349 073d e181 1e3e 76ff bb3d
000002f0: 4857 11be ed82 593d f4ff bfbd a9ef 9c3b
00000300: d7a8 063e 1fa4 8d3d 4925 83bc 3515 32be
00000310: 1a8a 843e b6ac 83bd 1972 023d ad40 673d
00000320: 5d36 eebd 8ebd 9cbd 154b bdbd c5bb d1bd
00000330: 993d 0dbd ae16 d33d 3d6a 443d ad83 cdbd
00000340: 5978 2ebe bad9 503e a6d0 7fbd 3d73 e9bd
00000350: e093 4abe 0fb3 0fbc 56cb 133d 9c6b f2bd
00000360: 6701 04be 54bc 543d 8726 1fbe 6f33 f73d
00000370: da0c e6bd 08ca 343d e576 523c 81b2 b3bd
00000380: 64c3 79be 2b4c 103d febd 38be 4a3b 5a3d
00000390: 110d 01be e429 b83d caae 353b 4e62 7bbd
000003a0: a407 723e 2f4c f2bc 3db5 3ebd 5092 ebbc
000003b0: df9b 5abd 57c6 4ebd d931 16be b64e 52be
000003c0: 4d2f 2dbd d505 18be b92b 61be bf95 483d
000003d0: 2b42 cc3d 1a9c 083e cc4d 85be b494 d73c
000003e0: b71b 673b 31e6 b73d 8eb0 fcbd 450b 8dbd
000003f0: bf01 123e 8067 2f3d 86da 84bd 6f2a adbd
